Model-Training/saved_models/litemodel_0_0.tflite (tflite, 16948 bytes, 8 tensors)

sequential_1/dense_1/MatMul/ReadVariableOp/transpose f4 [40, 40]
000000 04 de 07 3a 19 5c 6b 3e e0 6d ee be 2b 9c aa bc
       0.0005182924 0.22984351 -0.46568203 -0.02082642
000010 62 31 38 3f 56 60 46 3e af 60 10 3f 43 14 02 3f
       0.7195035 0.19372687 0.5639753 0.50812167
000020 2a 83 d7 be f8 7a 21 3e 9c 8c c4 3c 06 1f 0a bf
       -0.42092258 0.15769565 0.023992829 -0.5395359
000030 39 31 23 bf 86 ef 25 3f 63 b5 26 3f fa 7f 1c bf
       -0.6374698 0.6481861 0.65120524 -0.61132777
000040 63 e7 eb 3f 22 cd 00 bd f4 38 f5 be 5f d2 a4 3e
       1.8429989 -0.03144563 -0.47895014 0.3219175
000050 26 8a 92 3f 9b 5e 1d bd 76 30 b2 be 82 65 6c 3f
       1.144841 -0.0384203 -0.34802598 0.9234239
000060 d0 7d dd be a2 9a 09 be 11 3f ca be 48 ad 32 bd
       -0.4326005 -0.13437894 -0.3950124 -0.043622285
000070 cb 75 bd 3e b9 b9 4b 3f 2a 30 e4 3c 11 47 e7 bd
       0.3700393 0.79580265 0.027854998 -0.11292852
000080 87 1e d5 3e ad 8e 68 3d 7e 8d fb 3e 97 45 1b bf
       0.41624853 0.05677669 0.49131387 -0.6065306
000090 45 77 62 3e e8 7b ac 3e af 5a 87 be 21 6c 84 3e
       0.2211581 0.33688283 -0.26436374 0.25863746
0000a0 a9 34 46 bd b7 0d ce bd 96 49 0d be ec 96 a7 3e
       -0.048390064 -0.1006121 -0.13797602 0.32732332
0000b0 59 77 56 be 2c 5c ca be 85 1a 52 3f 5f 49 ea be
       -0.20943965 -0.39523447 0.82071716 -0.45759103
0000c0 01 62 98 be 3c 21 e3 3e e7 5a 02 bd b9 5b 3b be
       -0.2976227 0.44361293 -0.031824972 -0.18296708
0000d0 83 ed 70 bf cc be 87 be fc 0f f6 3e c5 6d d1 be
       -0.94112414 -0.26512754 0.4805907 -0.4090406
0000e0 ee df d8 bd e5 ac 6f bf c4 2b 83 3f 1d 9b dd be
       -0.10589586 -0.9362319 1.0247731 -0.43282405
0000f0 71 48 da be 3d 31 37 bf c7 09 bc be 34 1c 71 3d
       -0.42633393 -0.71559507 -0.3672621 0.058864787
000100 b2 7c c2 3d ea 5e 90 3f 4b 8d 3a be 67 06 70 3e
       0.0949644 1.1278965 -0.18217961 0.23439942
000110 6c c8 71 3e bb 51 a0 be ad cb 40 3f 14 16 79 3e
       0.23611611 -0.31312355 0.75310785 0.24324828
000120 a0 7b 1f 3f d2 94 2a bf cc 15 c3 3e 60 2a 88 3f
       0.6229801 -0.6663333 0.38102567 1.0637932
000130 93 48 fa be bb ed f6 3c ca 49 d6 be 0f e7 f6 be
       -0.48883495 0.030142656 -0.41853172 -0.4822316
000140 4e cf 51 bd 40 eb 3f 3e ec 2f 52 3e ca 57 1a be
       -0.05122309 0.18742085 0.20526093 -0.15072551
000150 9a f3 62 be 3d 6b 53 3e c7 75 53 bf 7a d9 4a 3f
       -0.22163239 0.20646377 -0.8260159 0.7923809
000160 df c8 d5 3d 94 be cc bd e2 0a 9d 3d 67 07 69 be
       0.10438704 -0.099972874 0.07668091 -0.2275673
000170 45 4a ab be 60 96 3f 3f 8e 78 84 3f ba 9e 63 be
       -0.334551 0.7483883 1.034929 -0.22228518
000180 be bd a5 3f 63 e0 97 3f 4a f2 d3 bc 6a a0 bc 3e
       1.294853 1.1865352 -0.025872368 0.36841136
000190 7c 1e 85 be 2b c9 1b 3f 9e 0a b2 be 55 da 8a 3e
       -0.2599982 0.6085383 -0.34773725 0.271197
0001a0 4b 99 b5 3e 87 47 12 3f d1 fc c7 bd ba 05 4c bf
       0.35468516 0.5714039 -0.09765018 -0.7969624
0001b0 7d fa b9 be c5 40 59 bf 76 30 98 be 90 9d b3 be
       -0.3632392 -0.84864455 -0.29724473 -0.35081148
0001c0 5f a3 a1 bd cb c2 26 3d 7f 40 9d bf 4c a4 90 be
       -0.07892489 0.040713113 -1.2285308 -0.2825035
0001d0 85 f6 13 bc cc fd 67 3e f7 41 a7 3e 5c cc 80 3e
       -0.009030943 0.2265541 0.32667515 0.25155914
0001e0 9b fb 46 bd f9 02 2f be f1 f6 9e 3d 6b ad f7 3c
       -0.048579793 -0.17090978 0.07761944 0.03023406
0001f0 d9 0a 5f 3f bb 12 d3 3e 23 f2 92 bd 3a de 0a 3f
       0.8712593 0.41225228 -0.0717509 0.5424534
000200 c4 2c bc be 0d 33 c2 bb ca f5 f5 3d 7e d8 1e bf
       -0.36752903 -0.005926496 0.12009771 -0.6204909
000210 0b c8 96 3e f4 83 70 bf 23 7f cd bf 53 91 f6 be
       0.29449496 -0.93951344 -1.6054424 -0.4815775
000220 36 22 c1 bd c1 24 16 3f 4b cf 53 be 4d c2 56 3d
       -0.09430353 0.5864983 -0.20684545 0.052431393
000230 02 13 47 bd 90 fa 4c 3f 34 e9 da 3c 17 45 a7 3d
       -0.04860211 0.8006983 0.026722528 0.08167475
000240 3e 80 f3 bd 4b d5 b1 be 81 40 ae 3f 72 4b f5 be
       -0.11889695 -0.34733042 1.3613435 -0.47909123
000250 28 e0 09 3f 4f ca fd 3e 19 86 9d bf 69 b3 38 bf
       0.5385766 0.49568412 -1.2306548 -0.7214876
000260 47 69 b7 be 15 a1 3c 3f a3 80 0c 3f 0a 4a 8b be
       -0.35822508 0.7368329 0.54883784 -0.27204925
000270 3f 25 42 be 64 f0 3c 3f bd 66 82 3e ef 15 99 3f
       -0.18959521 0.73804307 0.25469008 1.1959819
000280 18 e6 0b 3e de 73 f5 bd 93 83 43 be 00 90 a0 bc
       0.13661993 -0.119849905 -0.1909316 -0.019599915
000290 40 08 d2 bd fc a8 d1 3d 3c ab 73 be 4d a1 3b be
       -0.1025548 0.10237309 -0.2379579 -0.1832325
0002a0 94 0e 41 bd d8 04 08 bd 98 36 98 3d 30 cc 03 3e
       -0.047133043 -0.033207744 0.07432288 0.1287086
0002b0 ed e8 0e be 34 d7 52 be 74 c8 29 bd ce 7d 5e 3e
       -0.13956042 -0.20589906 -0.041450933 0.21727678
0002c0 53 ee 4c be 7c 2f 4b 3e a0 e0 60 3e f0 22 23 be
       -0.20012788 0.19842333 0.21960688 -0.15931296
0002d0 f2 32 21 3e 00 83 6b 3e c8 77 6e 3d 10 51 de bd
       0.1574209 0.22999191 0.0582197 -0.10855305
0002e0 51 b7 87 be ea 7e 28 3e 98 d8 0b 3d b0 d2 13 3d
       -0.26507047 0.16454664 0.034142107 0.0360896
0002f0 68 b9 d6 bd 96 0f 09 3e e4 8c 9d 3d 1f 68 71 be
       -0.10484582 0.13384852 0.076928884 -0.23574875
000300 06 2f 5c 3e d0 d3 6f 3d af 5f 49 be 04 46 ea 3d
       0.21502313 0.05855161 -0.19665407 0.11439136
000310 72 2a 74 be 84 26 e6 bd 8e a6 4a 3e 86 7e 58 be
       -0.23844317 -0.11237815 0.19790098 -0.21142015
000320 be 01 40 bd bd b3 f1 bd 49 0d 3b 3e 40 14 c4 3e
       -0.04687666 -0.118018605 0.18266787 0.382967
000330 e1 87 06 b9 f9 d4 0f be 92 09 a6 bd 9c 2f a9 be
       -0.00012829855 -0.14046086 -0.08107294 -0.33044136
000340 af d0 b1 be bc fb 3a 3e d3 76 ce be 70 f0 b1 3e
       -0.34729525 0.18260092 -0.4032503 0.34753752
000350 2f 93 4f 3f bf e3 91 bd 4b b3 df bf 9c 6d 7f bf
       0.8108396 -0.07123517 -1.7476591 -0.99776626
000360 64 42 ee be 29 d9 db bd d1 0d 19 bf 88 6a f5 be
       -0.46535027 -0.107347794 -0.5978671 -0.4793284
000370 b1 69 29 3e d2 d1 57 bf bb d8 4a 3f af 13 d6 3b
       0.16544224 -0.84304535 0.79236954 0.006533108
000380 36 18 82 be dc c8 10 bf 0a 3b 4f bf 3c 2b 48 3e
       -0.25409096 -0.5655649 -0.8094946 0.19547743
000390 c7 5a b4 3e 6b b0 99 3f c2 3b 0b bf 2b 1c 20 bf
       0.35225508 1.2006963 -0.5438806 -0.6254298
0003a0 cf 00 1b 3f 46 e4 2d 3f 18 e5 e0 be 47 88 8f be
       0.6054811 0.6792644 -0.43924785 -0.2803366
0003b0 d2 48 02 be 07 af 8b be 44 ba b1 3d 20 0e d0 3e
       -0.12723091 -0.27281973 0.086781055 0.40635777
0003c0 06 10 7f 3c 59 98 80 be 74 4e 2c 3e e7 55 39 3e
       0.015567785 -0.25116232 0.16826802 0.18099175
0003d0 e5 00 c7 3d b6 14 73 be 39 05 ec bd 61 ad 4d 3e
       0.097169675 -0.2373837 -0.11524434 0.2008567
0003e0 d1 c5 14 be 14 77 93 bd b7 d6 58 3e 54 7b 2f be
       -0.14528586 -0.07200447 0.21175657 -0.1713689
0003f0 9c 3f 0d be a4 ba 01 bd f3 80 80 3e 6c 9b 0e 3e
       -0.13793796 -0.031672135 0.2509838 0.13926476

sequential_1/dense_1/MatMul_bias f4 [40]
000000 bd c9 14 3f c7 0b 01 bf fd 2e b9 3e 05 8f f1 3e
       0.5812033 -0.50408596 0.36168662 0.47179428
000010 00 00 00 00 86 df 19 bf da 14 bd bb 2d 9e 2f 3e
       0.0 -0.60106695 -0.005770308 0.17150183
000020 75 0e 0e 3f 67 18 00 bf 1e 81 ff be 6f e7 bf 3b
       0.5549081 -0.50037235 -0.49903196 0.0058564465
000030 2d 97 48 bf 2d 35 12 3e 23 af 2f be 63 b8 a3 be
       -0.78355676 0.14278097 -0.17156653 -0.31976613
000040 23 c7 b8 bb 00 00 00 00 67 cf 83 bd 79 bf 5f be
       -0.0056389733 0.0 -0.06436043 -0.21850385
000050 b8 24 0c be 4c 46 2e 3c d7 84 a1 be 30 fe 90 be
       -0.13685882 0.010636877 -0.3154666 -0.2831893
000060 00 00 00 00 00 00 00 00 d0 b6 af be 00 00 00 00
       0.0 0.0 -0.34319162 0.0
000070 22 c1 5b bc e1 8e 45 3e d8 aa 26 3e 00 00 00 00
       -0.013412746 0.19292785 0.16276109 0.0
000080 82 54 b8 3e ca df e7 3d 0b 10 3a 3e 2a e4 17 3d
       0.36001974 0.11321981 0.18170182 0.03708283
000090 00 00 00 00 88 c4 1b 3e 9d d1 ca bc 00 00 00 00
       0.0 0.1521169 -0.024758155 0.0

sequential_1/dense_2/MatMul/ReadVariableOp/transpose f4 [25, 40]
000000 ed 44 ac bd 5d ec ca 3d 4d 85 e9 bc 6d 1a 9c bd
       -0.08411584 0.09908364 -0.028505946 -0.07622228
000010 12 15 46 3e 60 2c 50 3e 87 5b 8e be aa e3 90 3e
       0.19343975 0.20329428 -0.27804205 0.28298694
000020 b3 bf 6e 3e ec 1c e9 3e 3a 28 95 3d 74 06 2e be
       0.23315315 0.45529878 0.07283063 -0.16994649
000030 67 2f 02 3f 89 d4 9a 3c 90 52 d3 3e 48 85 86 3e
       0.5085358 0.018900173 0.41273928 0.2627356
000040 71 cf 82 3e b0 e7 94 be 12 4b 12 be 5b 63 31 be
       0.2554889 -0.29083014 -0.1428645 -0.17323057
000050 8d 5a ba be b0 71 c6 bc fd da 45 3d 46 7a 8d be
       -0.3639721 -0.024224132 0.048304547 -0.2763235
000060 24 6b ea 3d d0 0a 91 be bd 51 b9 bc 98 76 99 3d
       0.11446217 -0.28328562 -0.022621984 0.07493323
000070 07 e8 5b be 4a ff 7b 3f 2c 72 85 3d 0d 60 93 be
       -0.2147523 0.98436415 0.06515917 -0.28784218
000080 d9 9b 70 bf a4 16 2d bf 71 f5 6e be 63 f3 c9 3e
       -0.93987805 -0.6761267 -0.23335816 0.39443502
000090 60 ff 32 3c b3 5a 8b be 5c e9 46 3e d5 9d 24 be
       0.010925144 -0.27217636 0.19424957 -0.16075833
0000a0 e2 fb 33 3e c3 04 e2 3d ca 36 87 bd 2c 40 18 bf
       0.17576554 0.110360645 -0.06602247 -0.5947292
0000b0 a4 32 6f be 2a 9c cb 3e a4 9e 76 3e 47 2f 50 be
       -0.23359162 0.3976758 0.24083954 -0.20330535
0000c0 46 58 65 3e f4 b9 15 3f 75 6d d0 3e 43 1c e0 bc
       0.22396955 0.58486867 0.4070851 -0.027357226
0000d0 04 3d 41 bf 7b e8 68 3e c3 ea a5 bd 36 05 34 3d
       -0.7548373 0.22744934 -0.08101418 0.043950282
0000e0 54 f8 99 3e 99 cc 21 be 64 80 d4 3d c7 37 71 3e
       0.30072272 -0.15800704 0.10376051 0.23556434
0000f0 36 19 0f bf e3 fc 9a 3e 09 c9 6c be 2f 34 c2 3e
       -0.55897844 0.30271062 -0.23123564 0.37930438
000100 2a cf cb bd d0 38 16 be 38 f1 85 be 8a 05 37 3e
       -0.09951623 -0.1467011 -0.26160598 0.17873207
000110 00 55 75 bb bc 85 0f bf ea af 78 bf f4 5f 55 be
       -0.0037434697 -0.5606344 -0.97143424 -0.20837384
000120 c2 11 c0 3c 84 46 17 bf 33 43 11 bc 01 e4 4e be
       0.023445968 -0.59091973 -0.008866119 -0.20204164
000130 b0 23 54 3e 3c 96 81 bd 80 0a e5 3d 29 6d 7b be
       0.20716739 -0.06327483 0.11183643 -0.2455336
000140 b7 b0 04 3f 02 f8 e3 3d cc ca fd 3e 56 46 35 3e
       0.51832145 0.11131288 0.49568784 0.17702612
000150 00 53 36 bd 8e 63 1a be 80 3e 71 3e 14 43 a9 be
       -0.04451275 -0.1507704 0.23558998 -0.3305899
000160 98 e2 0f be eb 54 79 3e ef aa af 3e f3 2b b4 be
       -0.14051282 0.243488 0.343101 -0.3518978
000170 81 ff 00 3e 30 0e 05 bf 5a 41 d3 3e 50 8d ad 3e
       0.12597467 -0.51974773 0.41260797 0.33896875
000180 b0 a8 be 3b 3a 83 74 be 8a 42 c3 3e 24 e7 ed 3e
       0.005818449 -0.23878184 0.38136703 0.4646541
000190 9d 9f 76 bd 3f 2d 15 be ea 93 34 bd d9 87 4c bf
       -0.060210813 -0.14568041 -0.044086374 -0.7989479
0001a0 78 bf 25 be a8 e2 73 be ed 94 b3 3e 94 80 94 be
       -0.16186321 -0.23816931 0.3507456 -0.29004347
0001b0 98 f7 a2 be f2 2f e6 3e 41 50 40 be a8 35 3c 3d
       -0.31829524 0.44958454 -0.18780614 0.045949608
0001c0 a8 d7 9c bf ee 73 a0 be 04 f0 96 bd f9 73 13 be
       -1.2253313 -0.31338447 -0.07369998 -0.14399709
0001d0 90 92 42 3e 55 e2 10 bf d3 82 ae 3d 14 82 ee 3d
       0.19001222 -0.56595355 0.085210465 0.11645904
0001e0 53 dd 6f 3e 9c fb 09 3e e3 43 8a be 3a c9 83 bd
       0.23424272 0.13474888 -0.27004918 -0.06434865
0001f0 b8 b6 93 3d 00 2e 07 3f cf fe 89 be d0 1f c8 be
       0.07212585 0.52804565 -0.26952216 -0.3908677
000200 10 13 7b be 99 b3 f4 3e 60 8b a5 3e 47 9f 4b 3f
       -0.2451899 0.47793272 0.32332897 0.7953991
000210 e2 ef 34 3f 87 e5 de 3c 13 2a 8d 3e 79 81 9a be
       0.7067853 0.027209057 0.27571163 -0.30176905
000220 84 08 bb bd 99 cf 04 be 58 a8 f2 bd b9 68 06 3f
       -0.091324836 -0.12969817 -0.11848515 0.52503544
000230 b6 fd c3 3e 8d fc 96 3e b6 0a a4 3e 65 65 b3 3e
       0.38279504 0.29489556 0.32039422 0.35038295
000240 74 10 9b be de d6 39 3e 51 8a 02 3f ce 10 91 be
       -0.3028599 0.18148372 0.50992304 -0.28333133
000250 aa f2 27 3e 9f f3 81 be ad 50 1c 3e a8 a5 a9 3d
       0.16401163 -0.2538118 0.1526515 0.082835495
000260 04 8f 54 bf 7a 3b 62 3f f5 5d 0f 3e 5d 37 18 be
       -0.83030725 0.88372004 0.14000686 -0.1486487
000270 de 32 4d be 29 47 9d be 07 f0 13 3e 1c cf ea 3d
       -0.20038936 -0.30718353 0.14447032 0.11465284
000280 f9 1f 20 be 56 35 60 be 9f 16 c8 be 5e 8f 9d bd
       -0.15637197 -0.21895346 -0.3907976 -0.07693361
000290 4c 78 dc 3d 58 5b 7c 3e b0 17 32 3e a0 44 13 3e
       0.10765132 0.2464422 0.17391849 0.14381647
0002a0 f2 f6 93 be 7d 5c ac 3e 42 8d ef 3e 9a ad 78 bb
       -0.28899342 0.33664313 0.4678746 -0.0037945271
0002b0 3b 95 b5 3e 4f 28 8c bf 4d 6b b6 3d 7c 76 f4 be
       0.35465416 -1.0949801 0.08907185 -0.47746646
0002c0 ee 4e 4f be 80 a8 3b bb aa d5 3e 3e 2f fd 03 3f
       -0.20244953 -0.002863437 0.18636194 0.515582
0002d0 a2 a9 37 be f8 13 ef be fc b4 27 be 31 8a 65 3d
       -0.17935804 -0.46694922 -0.16377634 0.056039993
0002e0 d0 6f 5b bd 1f 07 2c be 6b 58 43 bf 00 ac 77 be
       -0.05357343 -0.16799591 -0.7630679 -0.24186707
0002f0 e4 10 43 3e a6 04 9b be 06 b3 20 bd 28 89 85 be
       0.19049412 -0.30276984 -0.03923323 -0.26081204
000300 10 3d ac be b4 bf af 3e 2f 25 ea be 4c 5c a2 3d
       -0.33640337 0.34325945 -0.45731494 0.079277605
000310 13 d4 98 be 2a c1 3d bf e9 74 3a be 7b 73 28 be
       -0.298493 -0.7412287 -0.1820866 -0.16450302
000320 c9 23 97 be d9 97 ae be 2e 27 c3 3d aa 42 6e be
       -0.2951949 -0.34100226 0.09528957 -0.23267618
000330 50 2e 9d bd d8 6b fd 3d 20 c4 c7 3d 96 90 c9 be
       -0.07674849 0.12374085 0.09754205 -0.39368123
000340 bc f1 81 be ac 79 ab bd 5d 22 b8 be cc c5 bf 3c
       -0.2537974 -0.083728164 -0.35963717 0.023409747
000350 a3 b0 24 be da c3 8c 3d 78 a4 a9 be c7 4b 8d be
       -0.16083007 0.06873293 -0.33133292 -0.27596876
000360 d0 0a 81 3d 1a 40 6a be 55 31 dd 3d 5b ff db 3d
       0.063008904 -0.22876015 0.10800425 0.107420646
000370 60 91 e1 3d 75 48 3f bd 31 41 86 be ce 30 58 be
       0.11014056 -0.04669996 -0.26221612 -0.21112368
000380 8f 0d 72 be ac df f0 3d 2f 7f c9 3d 64 21 af bd
       -0.23637985 0.11761412 0.098387115 -0.08551291
000390 fd 98 bf 3b 6f d5 b0 3d de 3b 57 bc c2 27 4b be
       0.005847095 0.08634459 -0.013136832 -0.19839385
0003a0 9c eb 84 be 69 85 93 be 5d 40 43 be 68 0c c9 3c
       -0.25961006 -0.2881272 -0.19067521 0.024542049
0003b0 20 21 3f bd 9b 04 91 be 1b ad 0f be c8 33 7d 3e
       -0.04666245 -0.28323826 -0.14030878 0.24726784
0003c0 9d ca 91 3e 45 be c4 bc b4 66 8b be 3e 6a 00 3e
       0.28474894 -0.024016509 -0.27226794 0.12540528
0003d0 d0 e4 8c 3c 92 98 74 3c 13 0d 49 be f9 cb 44 be
       0.01719895 0.014928954 -0.19633894 -0.19218434
0003e0 2a da cb 3e cf b6 37 bf 02 9a b1 3e d3 07 6e bf
       0.39814883 -0.7176332 0.3468781 -0.9298069
0003f0 92 90 4d 3f c5 a1 2c 3f fb 88 44 3e ec e5 f1 3d
       0.8029872 0.6743434 0.19192879 0.11811432

sequential_1/dense_2/MatMul_bias f4 [25]
000000 f8 31 ca be 04 f8 fc bc 32 69 e9 3d b6 39 06 bf
       -0.39491248 -0.030879982 0.113970175 -0.5243181
000010 31 6b cb be 7f f3 f3 bd 5c a1 16 3e b1 b1 b4 3e
       -0.39730218 -0.119116776 0.14709991 0.35291818
000020 ad b6 b5 bd e3 46 7c bc 7e f1 19 bd 72 77 c9 3d
       -0.08872733 -0.01539776 -0.03758382 0.098372355
000030 44 fa 0f be 1c 96 78 3d 27 32 52 3d ec 57 3d bd
       -0.14060313 0.06069003 0.05131736 -0.046226427
000040 bf 91 0a 3d c3 e3 04 be 57 7a c7 3e 8f 0c 1b 3f
       0.0338304 -0.12977509 0.38960525 0.6056604
000050 b1 58 f3 3d 6d fb b8 bc 2c 5f 0b bd f7 2e 20 3f
       0.11882151 -0.022580827 -0.03402631 0.6257166
000060 c6 a2 5b be
       -0.21448812

sequential_1/dense_3/MatMul/ReadVariableOp/transpose f4 [10, 25]
000000 a7 f8 37 be c4 52 0a 3f 9b 75 1c 3f e1 a0 60 3e
       -0.17965947 0.5403254 0.6111695 0.2193637
000010 d5 c5 8f be 9a bd 87 3e 26 45 f6 be b7 48 91 3e
       -0.2808062 0.26511842 -0.4809963 0.2837579
000020 0a d9 04 bc eb 15 ad 3d 7f 74 d2 bd db 1b 4a bf
       -0.008108387 0.08451446 -0.10276126 -0.78948754
000030 17 50 de be c3 ab ee 3e 60 19 12 3e 9c 01 af be
       -0.4342048 0.4661542 0.14267492 -0.34180915
000040 2f e3 2a bf c8 2e c1 bc 61 25 13 3f a7 ae 6d 3d
       -0.66752905 -0.023581877 0.5747891 0.05802789
000050 e6 f4 13 3e ef e9 0e 3f 0c 51 26 bf 75 44 d8 3e
       0.1444889 0.55825704 -0.6496742 0.4223973
000060 ab f2 c6 be 24 09 d6 be c9 99 a1 3e 56 fb f3 3e
       -0.38857016 -0.4180385 0.3156264 0.47652692
000070 bf fe 23 be 06 42 b2 be f0 53 0f be ca c9 d6 3e
       -0.16015147 -0.34815997 -0.13996863 0.41950828
000080 26 eb 85 be af e9 79 3e 1c 2c 9e 3d ed e9 cb 3e
       -0.26155967 0.2440555 0.07723257 0.3982691
000090 ac 26 90 be 9b 72 8f 3e 4c 58 4a be 43 65 12 be
       -0.28154504 0.28017125 -0.19760245 -0.14296441
0000a0 ac 3a 98 be 5e 32 1b bf 10 88 37 3d 58 33 ba be
       -0.29732263 -0.6062373 0.044807494 -0.36367297
0000b0 13 0f c7 be 13 21 a6 be e6 ab 21 3e ad 5c 3b 3e
       -0.38878688 -0.3244711 0.1578823 0.18297072
0000c0 c5 07 31 3e a1 d0 8b 3e dd 87 b4 3d e1 3e f5 3e
       0.1728812 0.2730761 0.08814976 0.47899535
0000d0 45 76 fe bd ec 3d 34 3f f7 70 7b 3f 08 2e bd be
       -0.12424902 0.70406985 0.98219246 -0.36949182
0000e0 3d 10 a6 be 7a 03 dc 3d 9d ae 35 3d b6 b6 3b 3d
       -0.32434264 0.107428506 0.044355977 0.045828544
0000f0 c9 4b 37 3d 32 44 42 3f 97 89 41 3e 58 aa a6 3d
       0.04475001 0.7588531 0.18900143 0.08137959
000100 c2 85 8f 3e dc 8e 70 be 52 1e 6d 3f 06 0a 16 3f
       0.28031737 -0.23491997 0.9262439 0.58609045
000110 10 d2 0c be 95 38 c2 bd 67 11 06 bd a6 6a 09 bd
       -0.13752007 -0.094834484 -0.03273144 -0.033548974
000120 6f 92 94 be f2 90 8f bd 39 3d e6 3e 90 1a 1a be
       -0.2901797 -0.07010068 0.44968584 -0.15049195
000130 fc 61 ac 3e d9 d5 97 3b 2f ed c5 bd c2 fc ce 3e
       0.33668506 0.004633647 -0.0966438 0.40427214
000140 0e ee 46 bd c1 5e 68 be c2 fe 24 3e 8f 5a 3c bf
       -0.04856687 -0.22692396 0.16112807 -0.7357568
000150 8a c7 c4 3e 92 25 48 3e f0 8c ce bd a0 8a d9 3c
       0.38433486 0.19545582 -0.100854754 0.02655536
000160 09 a1 b3 3e a4 b7 e4 be 55 36 81 3e a7 db 10 be
       0.35083798 -0.44671357 0.25236765 -0.1414629
000170 c0 9b c4 3e e2 d5 a8 3e 3f 4c 4f 3f 2c 5f 88 be
       0.38400078 0.3297568 0.8097572 -0.2663511
000180 0b b5 26 bf 1c a5 50 3e c0 05 30 be 83 f0 d9 3e
       -0.6512 0.20375484 -0.17189693 0.42566308
000190 28 cb 19 3f a8 45 86 bf b4 a3 e8 3e eb 61 a6 3e
       0.60075617 -1.0490007 0.45437396 0.3249658
0001a0 83 98 32 bf 7a 3f 83 3e e8 fb f1 3d d3 8d f2 be
       -0.69763964 0.25634366 0.118156254 -0.47373828
0001b0 bb 6f f7 be 58 92 87 be 14 8d b6 be 45 c4 80 be
       -0.4832743 -0.2647884 -0.3565451 -0.25149742
0001c0 7f d8 8a 3e f0 2e 3c 3e f3 89 78 3e 14 d0 ed 3e
       0.27118298 0.1837728 0.24271373 0.46447814
0001d0 bc 90 9b bf 12 59 a1 bf 3b c0 89 3e 6d fe 80 3e
       -1.2153544 -1.2605307 0.26904473 0.2519411
0001e0 77 fb bf 3e 1e 19 05 3c 72 84 04 3e 61 37 cb be
       0.3749654 0.008123664 0.12941149 -0.39690688
0001f0 02 b8 c2 be c7 da cf 3e e2 1e 19 3f 6c 23 15 3f
       -0.38031012 0.405966 0.5981275 0.58257174
000200 e2 6a 0d 3e 8d e7 6b 3f ab 33 cb 3d bc 88 81 3f
       0.13810304 0.92150193 0.09921964 1.0119853
000210 fe 31 bc 3e 4c 10 49 be ad 28 08 be 8a d4 f1 3d
       0.3675689 -0.19635123 -0.13296767 0.11808117
000220 48 ee 3b bf a4 16 83 3e 0e 78 3b 3e 87 f9 ec be
       -0.73410463 0.2560321 0.18307516 -0.46284124
000230 3b 9a 3d 3e 40 ce 15 bf 6a 6c a8 3e cb 5a 80 be
       0.18515866 -0.5851784 0.32895213 -0.2506927
000240 42 d0 28 3e 75 e6 1b bf 28 fc 37 be 44 0b 13 3e
       0.16485694 -0.60898525 -0.17967284 0.14359766
000250 d7 a4 cb 3d ed 2c 5d be 19 ae d3 3d 34 d9 58 be
       0.0994355 -0.21599169 0.10335941 -0.21176606
000260 70 e4 81 3e 57 1d 9c 3d c6 bc d0 3e c8 90 5f 3e
       0.25369596 0.07622784 0.40769023 0.21832573
000270 0d 08 03 bf ee fd 1f be e5 fd 3f 3f 64 c5 a0 3e
       -0.5118416 -0.1562421 0.7499679 0.31400597
000280 2a 90 32 be 86 8c 0a 3f 22 bf 46 bf 4e 24 60 bf
       -0.17437807 0.5412067 -0.77635396 -0.87555397
000290 a0 54 0f bf 76 df be 3f 03 be 17 3f 92 82 35 be
       -0.559885 1.4911945 0.5927431 -0.1772559
0002a0 60 e7 d8 be 6c 9e ed 3e 23 3f 4e 3e 2a 95 19 3e
       -0.42364025 0.4640993 0.20141272 0.14998308
0002b0 cd a8 e3 3d 75 22 02 3f bf 65 8a be 94 7a 95 be
       0.111161806 0.5083383 -0.2703075 -0.29195082
0002c0 2c 48 08 be 0e dd 9d be ff af 67 be 3e 41 44 3e
       -0.13308781 -0.30832714 -0.22625731 0.19165513
0002d0 82 d4 29 3e a3 86 ac be b1 ef 67 be 73 37 0b 3e
       0.16584972 -0.3369647 -0.22650029 0.13595371
0002e0 fc f7 84 be cb 3d 96 3e 5f 18 9a 3e 70 ea af 3c
       -0.25970447 0.2934402 0.3009672 0.021474093
0002f0 8a 5d 8b 3e cf 43 80 3e b2 c2 91 3e 50 b5 9e 3d
       0.27219802 0.25051734 0.28468853 0.07749426
000300 a0 df 81 bd 08 b0 4d bc ba 9d d8 3c 43 91 03 be
       -0.06341481 -0.012554176 0.026442397 -0.12848382
000310 ab 74 2a 3b b5 78 6c be 20 03 14 bd 27 8c c2 bd
       0.002600948 -0.23092921 -0.036135793 -0.09499388
000320 47 29 3f be e0 c8 93 bc 6a 2b 1d be 40 13 6c bc
       -0.1866809 -0.01804012 -0.15348592 -0.014408886
000330 1a a3 d2 be 8d f6 b4 3e b0 86 ac be a4 70 a6 bd
       -0.41140062 0.35344353 -0.33696508 -0.08126953
000340 fc 13 92 bd fa 8b 92 be 9c 93 ca 3d c2 6e 37 3e
       -0.07132718 -0.2862242 0.098914355 0.17913345
000350 4e 32 6f 3e 58 60 02 3d fe 38 33 be 94 e6 95 be
       0.23359033 0.03183016 -0.1750221 -0.2927748
000360 18 4e a5 be d3 b0 2d be 7a ff 34 3e e5 a0 c6 be
       -0.32286143 -0.16961984 0.17675582 -0.38794628
000370 20 df 28 3c 40 9f a1 be a7 70 d2 be 8c 87 7a be
       0.010307103 -0.3156681 -0.41101572 -0.2446577
000380 d6 18 ae be 88 7c 5f 3e 23 6a f4 be da 9e 96 3e
       -0.34003323 0.21824849 -0.47737226 0.2941807
000390 fd f5 bb bc 58 cc bb 3b 0a f8 82 be 22 17 52 be
       -0.022944445 0.005731147 -0.25579864 -0.20516637
0003a0 be ec a4 be 39 7b a3 3e 0b 8b 00 3e 6d ba a4 3e
       -0.3221187 0.3192995 0.1255304 0.32173482
0003b0 6c e5 00 bf 18 d4 6b 3f f7 08 50 3f 27 dd b8 3e
       -0.5035007 0.92120504 0.8126368 0.36106226
0003c0 7b 6d a3 3c 83 e4 9b 3c 7f a3 04 3f 1d 1b 8e bf
       0.019949665 0.019029861 0.51811975 -1.1102024
0003d0 06 85 c9 3e 33 25 3f 3e 49 3d 04 3f b1 a3 55 bf
       0.393593 0.18666534 0.51656014 -0.834529
0003e0 37 28 60 3e 9c ef 29 3e
       0.21890341 0.1659531

sequential_1/dense_3/MatMul_bias f4 [10]
000000 5b a1 f1 3e ad 22 7e be ac 93 b9 be 98 66 ea 3e
       0.47193417 -0.24817915 -0.36245477 0.45781398
000010 86 b4 af be 4c 3e 27 3e 46 37 a2 3e 3b dc 3b bd
       -0.34317416 0.16332358 0.31682795 -0.045864325
000020 00 00 00 00 fc 1a 02 3e
       0.0 0.12705606

sequential_1/dense_4/MatMul/ReadVariableOp/transpose f4 [74, 10]
000000 a2 f0 39 bf ad f2 be bc fa b2 97 be 7c f0 27 3e
       -0.726328 -0.023309076 -0.29628736 0.16400331
000010 76 fb 38 3f 03 eb e2 be 00 6c 81 bf 76 0b 64 be
       0.722587 -0.44319925 -1.0111084 -0.22269997
000020 88 14 18 be 19 82 62 bf b2 00 2b be e3 18 8d bf
       -0.14851582 -0.88479763 -0.16699484 -1.102322
000030 0b 14 1b c0 3c 7e 3b bf 49 8b b8 3d 33 fd 6f 3e
       -2.4230983 -0.73239493 0.090109415 0.23436432
000040 a2 00 c1 3e 38 91 07 3d 06 13 79 3e 1f f8 a6 3e
       0.37695795 0.033097476 0.24323663 0.32611176
000050 0d a5 5d bf 85 ce 63 be 8b f0 2a be d9 71 8e be
       -0.8657997 -0.2224675 -0.16693322 -0.27821234
000060 93 d3 95 3e fa ef 22 bf 72 54 89 3e bc 6f fa 3d
       0.2926298 -0.63647425 0.2682224 0.12228343
000070 b2 52 85 be ec 1d c0 bd 18 9d 07 bf 54 cd 51 bf
       -0.26039654 -0.09380707 -0.5297408 -0.8195393
000080 6d 82 24 bf 74 f1 49 bf 8b 53 57 bf f0 64 3f 3f
       -0.64261514 -0.78884053 -0.8411185 0.74763393
000090 ae 8b 8b be 20 52 20 be 00 8c 1b 3a 8f 1e 1a be
       -0.27255005 -0.15656328 0.00059336424 -0.1505072
0000a0 ea e6 c1 3e e8 94 9f bf ad 7e 9a 3d 40 8f 2d bf
       0.37871486 -1.2467318 0.07543693 -0.6779671
0000b0 d3 08 15 bc c6 95 5e be 6e 31 04 bf c6 fb 9e bd
       -0.009096342 -0.21736822 -0.51637924 -0.07762866
0000c0 c6 70 1f 3e f4 38 c0 bf 0e 0c d7 3e 19 0f 1a bf
       0.15570363 -1.5017381 0.42001384 -0.6017929
0000d0 b0 9d 6f be 45 93 92 be 13 dd 9f bd e2 16 5a bf
       -0.23399997 -0.28627983 -0.078058384 -0.85191166
0000e0 a1 4f 0f 3e fa 7e 04 be c0 a1 d4 3b ec c0 1b 3e
       0.1399522 -0.12939063 0.0064890087 0.15210313
0000f0 fc df af 3d 74 3a 76 be 37 b0 76 bd e6 32 98 bf
       0.085876435 -0.24045736 -0.060226645 -1.1890533
000100 01 29 09 3e 72 d7 24 3e a9 8a 85 be 76 71 56 3e
       0.13394548 0.16097811 -0.26082352 0.2094172
000110 30 f9 42 3d 46 aa f8 3d 93 42 ab 3e 8e 74 b1 bd
       0.047600925 0.12141852 0.3344923 -0.08664809
000120 6d 0c 9c bf c4 73 02 be 01 73 8b 3e bc d7 70 bf
       -1.2191292 -0.12739474 0.2723618 -0.94079185
000130 fa 37 32 3e 0a 4d 65 be 70 60 1b be d5 88 ea bd
       0.17404166 -0.2239267 -0.15173507 -0.1145188
000140 76 40 21 be 9c 71 e2 bf c5 8b a6 bf 09 c5 e0 bc
       -0.15747246 -1.7690921 -1.3011404 -0.027437704
000150 26 4b 53 3c 21 ea a1 3e c2 0f 0f 3e 76 19 0c bd
       0.012896335 0.3162394 0.13970855 -0.03420397
000160 2e 19 c4 bd 04 8b be be d8 13 6e 3e 1e 42 6d 3e
       -0.09575115 -0.37215436 0.23249757 0.23169753
000170 f8 4b 6f c0 4b 9d 70 3e 78 84 80 3e 16 af 10 be
       -3.7390118 0.23497503 0.25101066 -0.1412929
000180 2d 25 4f bf bc f3 7f be 33 84 03 be 04 d3 a5 bb
       -0.809161 -0.24995321 -0.12843399 -0.0050605554
000190 52 bf f7 bf d4 16 6b bf 99 2d b3 bd 0d ab 29 bd
       -1.9355261 -0.9183171 -0.087489314 -0.041422892
0001a0 86 5f 34 3d 68 de 04 3e 4b c1 8e bc 60 ff 33 3d
       0.04403641 0.12975466 -0.017426154 0.043944716
0001b0 76 73 6c be dd bf a2 be 1d b9 3d bf 7e 97 72 3e
       -0.2309092 -0.31787005 -0.74110585 0.23690602
0001c0 bb af e1 bf 99 05 5b 3e 37 03 cd 3e dd 0c 19 bf
       -1.7631754 0.21388854 0.40041515 -0.5978525
0001d0 14 77 16 3e 78 96 28 3e 26 e6 0d 3e c1 be e1 3c
       0.14693862 0.1646365 0.13857326 0.027556779
0001e0 cf 66 4d be 64 4d 16 be 40 fa 74 bf 03 07 ef 3c
       -0.2005875 -0.1467796 -0.9569435 0.029178148
0001f0 09 e1 37 3e 35 e4 44 be c5 05 2e 3e a2 2f 32 3d
       0.17956938 -0.19227679 0.16994388 0.043502457
000200 00 58 d5 39 5b f4 80 3e e4 02 d4 be 46 ca 87 3e
       0.0004069209 0.25186428 -0.41408455 0.2652151
000210 dd dc 82 bf 14 48 bf bd a7 f8 1c 3f 55 7d 4b bd
       -1.0223652 -0.0933992 0.61316913 -0.049680073
000220 da 73 63 be 3a da 70 3e 98 c8 22 3e 2c 2c 04 bf
       -0.22212163 0.23520747 0.15896833 -0.516299
000230 e2 38 27 bf 4d 00 0e bf 26 bd 11 bf 4e 35 da bc
       -0.6532117 -0.5546921 -0.5692924 -0.026636746
000240 0a 68 03 bd ec 90 ed 3e 07 14 ff 3d 7c 84 4a be
       -0.03208164 0.4639963 0.12454992 -0.19777101
000250 88 29 00 bd f2 1d 0e bf e9 92 dc be f7 86 35 bf
       -0.031289607 -0.5551444 -0.43080834 -0.70909065
000260 78 1a 5e 3e 6d 35 81 be 14 1d 1b bf 51 ab 4a 3e
       0.21689785 -0.25236073 -0.60591245 0.19791915
000270 32 5f 18 be 84 64 e8 3d bc 64 a7 3d ba 98 cd bc
       -0.14880064 0.11347297 0.081735104 -0.02509724
000280 57 4a ee bd 41 77 06 be 2a 9d 30 3e 28 05 c5 bf
       -0.11635273 -0.1313143 0.17247453 -1.5392199
000290 a3 64 fc bd df 22 05 bf f7 38 88 3e 57 ab 86 be
       -0.123238824 -0.52006334 0.2660596 -0.26302597
0002a0 3c db 86 3d 4d e3 af 3e 87 aa 67 bb ff 40 2d 3e
       0.065847844 0.34353104 -0.0035349445 0.16919325
0002b0 e5 ac 0e 3c ff fb 90 bf 6e 0b cc 3e 0b e5 63 be
       0.008708213 -1.1326903 0.3985247 -0.22255342
0002c0 e0 40 9f be 80 c7 7c 3b da fe 1e 3e 46 4f c4 be
       -0.31104183 0.003857106 0.15526906 -0.3834173
0002d0 a5 8c 81 3e 25 e9 1e be 9b 59 8a 3e f1 5b 68 bf
       0.25302616 -0.15518625 0.2702149 -0.9076529
0002e0 c7 ec fc be 1b db 80 bf ef 67 e3 bb f4 09 17 be
       -0.49399397 -1.0066866 -0.00693988 -0.1474989
0002f0 f2 5b 21 3e 54 45 8b bf e2 1d 09 3d 82 11 e6 bf
       0.1575773 -1.0880532 0.033475764 -1.7974093
000300 e1 29 09 be 98 2a a1 bf 77 ca 02 3d 0e 10 d7 bb
       -0.13394882 -1.2591124 0.031931367 -0.006563193
000310 b6 85 9a 3e 8e 17 53 3e 07 1c 84 3e 63 ab 23 bf
       0.30180138 0.20614454 0.25802633 -0.6393339
000320 69 9c 02 be 28 ab 5a bf 97 34 25 bf 71 89 11 bf
       -0.12754978 -0.85417414 -0.6453337 -0.56850344
000330 16 e1 1b 3b 83 7c 72 3e 18 e6 af 3e 00 27 5a 3b
       0.0023785285 0.2368031 0.34355235 0.0033287406
000340 40 b1 ae bb 50 a8 8a 3e 1d ac 4c 3e 78 74 b8 bf
       -0.0053311884 0.27081537 0.19987531 -1.4410543
000350 5b b2 89 be 70 17 d6 be 8c 04 ab 3d 41 5f 25 bd
       -0.26893887 -0.41814756 0.083504766 -0.040374044
000360 72 bd b6 bd c5 31 81 3e c8 b0 08 bd b2 5e a6 3e
       -0.089228526 0.25233284 -0.033371717 0.32494122
000370 5b 2f fe bc f5 a9 81 be 71 32 0a c0 6d ba fe bd
       -0.03102844 -0.2532498 -2.1593287 -0.12437902
000380 19 57 57 be 49 a2 30 bf 28 d8 46 3f a8 ed 03 3d
       -0.21029319 -0.6899763 0.7767358 0.03220907
000390 d7 81 7c be be 52 8f be 9a c1 79 be d8 2b a1 bd
       -0.24658905 -0.27992815 -0.2439026 -0.07869691
0003a0 82 1d ba bf 60 29 8d be c0 16 e6 be 8b 9f f0 3e
       -1.4540255 -0.2757063 -0.44939232 0.46996722
0003b0 b4 d2 e3 3e fe b4 db bd 60 a8 0b 3c ad f9 8a bf
       0.4449669 -0.10727881 0.00852403 -1.0857445
0003c0 22 66 5b be b0 79 86 3e fc 5f bd bb 52 2b b9 be
       -0.2142568 0.26264715 -0.0057792645 -0.36165863
0003d0 f4 38 a0 be ef d0 0e 3d ed 87 c6 3e 44 c2 5f 3e
       -0.31293452 0.034867223 0.38775578 0.2185145
0003e0 66 d2 62 3e c5 58 d6 be fd 4e 38 3e b9 c0 72 be
       0.22150573 -0.418646 0.17998882 -0.2370633
0003f0 66 d2 70 bf f0 23 41 bd bc 03 e2 bd 55 66 b1 be
       -0.9407104 -0.047153413 -0.110358685 -0.34648386

sequential_1/dense_4/MatMul_bias f4 [74]
000000 4f a6 47 3f 05 e3 0b be d5 9c 0a bf 81 46 98 3e
       0.7798814 -0.1366082 -0.54145557 0.2974129
000010 f3 f7 49 3e 80 c4 0d 3f d7 20 fd bf b5 13 aa 3f
       0.19723491 0.5537796 -1.9775647 1.3287264
000020 19 98 8f 3f c8 3f 83 3e 91 7e 3a 3f 89 ad 87 3e
       1.1218292 0.256346 0.72849375 0.26499584
000030 0e 16 fd bf ad 54 32 3f d8 e5 68 bf 49 4f 01 c0
       -1.9772356 0.69660455 -0.90975714 -2.0204642
000040 2e bc 06 c0 ec 1a d1 3d ec b0 f7 bf 8c 52 00 bf
       -2.1052356 0.10210213 -1.9350867 -0.50125957
000050 9a 61 5b bf 3a b3 34 40 52 75 34 3f 41 8b 0a 3f
       -0.85695803 2.8234391 0.70491517 0.54118735
000060 2d 68 f9 3f 85 79 0f bf 0b 07 dd 3e 97 9b 2f 40
       1.9484917 -0.560448 0.43169436 2.7438715
000070 5a e5 c2 3f b7 98 1a 3e 0b 72 92 3f a4 e0 2b bf
       1.5226243 0.15097319 1.1441053 -0.6713965
000080 93 63 99 3d 3a bf ec 3d 87 23 a2 bf 02 3b 83 3f
       0.074896954 0.11559911 -1.2667092 1.0252383
000090 6e 66 8a be bd b9 40 3f ea f0 e0 3f 74 03 67 bf
       -0.27031273 0.75283414 1.7573521 -0.90239644
0000a0 76 d5 6d bf 6c cc 95 3f 2f a7 64 bf 78 71 a4 3f
       -0.9290384 1.170301 -0.893176 1.2847128
0000b0 35 cb e2 3f d7 b6 f3 3f 51 18 fa bf 1b c4 e7 be
       1.7718264 1.9040173 -1.9538671 -0.45266804
0000c0 5f ae 7c 3d 91 09 00 3f f3 5a 84 bf 42 04 f7 bd
       0.06168973 0.500146 -1.0340255 -0.12061359
0000d0 01 bb 1b 3f 59 1b 38 3f 56 f7 36 bf 25 20 fe 3e
       0.6083222 0.7191673 -0.71471155 0.496339
0000e0 c8 58 ee bf e1 64 54 3f 1a 4b ea bc 7b 64 a1 3e
       -1.8620844 0.8296643 -0.028600264 0.31521973
0000f0 dd 7f b7 bf cb 96 25 3f 35 b5 cb be 78 4d 23 3d
       -1.4335896 0.64683217 -0.39786687 0.0398688
000100 3e 39 87 3e d4 e9 2f bf df 2c 0c 40 64 f6 44 be
       0.2641086 -0.6871617 2.1902387 -0.19234616
000110 7c e4 19 bf e6 45 12 c0 d6 ec 0f bf d3 1c af bf
       -0.60114264 -2.2855163 -0.5622076 -1.3680671
000120 57 bd 5c bf 04 d6 61 c0
       -0.8622641 -3.5286875
